pbr.model (torch, 19122 bytes, 14 tensors)

conv1.conv2d.weight f4 [8, 3, 7, 7]
000000 68 e5 9d 3e da 54 00 3e d2 5f 47 3e 37 4b 8c 3e
       0.30839086 0.12532368 0.19470146 0.27401134
000010 f2 1e 82 be 22 c0 a4 be fb 65 01 be da 01 db 3e
       -0.25414234 -0.32177836 -0.12636559 0.4277485
000020 a1 43 43 be 6b 4d b0 bb 12 07 9a 3b 2b ac b9 be
       -0.19068767 -0.0053803227 0.00470055 -0.36264166
000030 cd dc cb bd d1 18 70 3e 23 3a df 3e 40 33 07 be
       -0.09954224 0.23446967 0.43599042 -0.13203144
000040 0c 35 55 be a4 2c 60 bf 6d 07 8d be 34 06 52 3a
       -0.20821017 -0.87568116 -0.27544728 0.00080117886
000050 c3 f0 ff bd 9a 4e 87 3e ac 3d ee bd e5 cc 06 bf
       -0.124970935 0.26427156 -0.11632857 -0.52656394
000060 1d 34 85 be 5b 0b 00 be 49 20 44 bd 42 ee 3b be
       -0.26016322 -0.12504332 -0.047882352 -0.18352607
000070 8f f4 1b 3e 3f 2b b2 be 9c 50 c0 bd c6 c9 1b 3e
       0.1523001 -0.3479862 -0.09390375 0.15213689
000080 0a 47 cd bc 13 c4 ee bd fa 5e 14 be 59 15 62 3d
       -0.025058288 -0.11658492 -0.14489356 0.05519614
000090 af 3c 3f be fb 65 8a 3e bb 6b 51 3d 9d d4 2a be
       -0.18675493 0.2703093 0.05112813 -0.16682668
0000a0 33 d5 d9 bd ae 5f f5 bd 4d b8 5b be 74 51 35 3d
       -0.10636368 -0.1198114 -0.21457024 0.044267133
0000b0 88 ea e0 3b 07 4e d8 3d 20 51 ee bd 56 ac 24 be
       0.006863896 0.105617575 -0.11636567 -0.16081366
0000c0 0c d0 9f be c0 66 50 3e e8 c2 32 3e 22 e7 74 3e
       -0.31213415 0.20351696 0.17457163 0.23916295
0000d0 57 db cf 3d f4 9d 47 be cf 72 bb be 9e 20 fd 3c
       0.10149258 -0.19493848 -0.3661103 0.030899342
0000e0 ab 00 a2 3e fb 58 7d bd c7 b7 93 3e e9 f1 36 3d
       0.31641135 -0.061852437 0.28851148 0.044664297
0000f0 c8 9f f3 bd ff 63 a7 bd 57 47 8c 3e 25 6b 45 3e
       -0.1189571 -0.081733696 0.27398178 0.19279154
000100 49 80 2d 3c 04 79 23 bc ee 65 0a bf d4 bf d2 bd
       0.010589668 -0.009977583 -0.5406178 -0.102904946
000110 b9 3c 69 3c a2 40 33 bd 49 63 f4 3d b3 f6 f4 bd
       0.014235669 -0.04376281 0.11933 -0.11961117
000120 4a f4 96 be f4 c0 e2 bd 6b 4a a0 bd 02 f2 b5 bd
       -0.29483253 -0.11071959 -0.07826694 -0.0888405
000130 12 e1 8c bd 2c c3 ae bc e3 d0 65 be c6 a8 3a bd
       -0.06878866 -0.0213333 -0.22442965 -0.04557111
000140 50 33 82 3e 30 d0 e5 bc 08 10 a1 bb 24 ce 58 3c
       0.25429773 -0.028053373 -0.004915241 0.0132327415
000150 d2 f8 89 bc 4b c1 2a be 72 d9 64 3e ea 15 94 bc
       -0.01684228 -0.16675298 0.22348574 -0.018076856
000160 d1 83 68 3d 53 e3 a4 3d 43 51 2f 3e c1 90 f9 bd
       0.056766335 0.08051171 0.17120843 -0.12185813
000170 f2 16 61 3e ef 51 73 bc 3b 72 1e 3d 4f e8 0e 3d
       0.21981409 -0.014851077 0.038683157 0.034889515
000180 07 e5 33 3e 3d cf 22 3e b9 dd 4a bc 80 00 d4 bd
       0.17567836 0.15899368 -0.012381964 -0.10351658
000190 e2 73 95 bd 9f 16 44 bc 50 89 9a bd 32 6a a1 bd
       -0.072974935 -0.011968284 -0.075457215 -0.07881583
0001a0 1f c0 23 3e 0b 1b 1b 3e 79 39 fc bd de 99 8f 3d
       0.15991257 0.15147035 -0.123156495 0.0701177
0001b0 b0 fa 0b 3d 51 fb 53 3d 9c c5 af 3d 63 52 23 3e
       0.03417462 0.051753346 0.08582613 0.15949397
0001c0 c1 3a 73 3e ea fb be bd fd a0 cf bb cd d9 9a be
       0.23752882 -0.093253925 -0.00633633 -0.30244294
0001d0 e7 6e 05 bc 4d 28 7e 3a bf 00 8d bb 82 11 0f 3e
       -0.008144117 0.00096953363 -0.0043030675 0.13971522
0001e0 7b ca 40 bd 37 34 4e be 97 46 91 bd 5c 0b 9e bd
       -0.0470681 -0.20137106 -0.07093542 -0.077170104
0001f0 82 b0 21 bc 05 41 f9 39 cc 49 fd 3c 12 b5 02 be
       -0.009868743 0.00047541424 0.030918978 -0.12764385
000200 56 6f d7 bc 08 c5 11 3c dd 3c 13 bd 06 4a c8 bc
       -0.026298206 0.008897074 -0.035946716 -0.02444936
000210 82 06 6f bc 09 40 92 3d fe 8c f8 bd 98 f9 f8 3d
       -0.014588954 0.0714112 -0.12136267 0.12156981
000220 48 28 22 be 77 19 f1 bd aa 7e 13 3d 77 60 ea 3c
       -0.15835679 -0.11772435 0.03600947 0.028610451
000230 3b 21 77 3d 06 99 29 3d 57 0e 61 3c 96 71 3d 3b
       0.060334425 0.0414057 0.013736329 0.0028906814
000240 ce a0 fa 3b aa ea 91 bc c1 02 43 3d cb 64 fa bd
       0.007648564 -0.017812092 0.04761005 -0.12226256
000250 58 fc 03 3e 2d 39 50 3e df aa 32 3d 74 67 15 3e
       0.1288923 0.20334311 0.043619987 0.14590245
000260 db 8e 46 be 9a 3d 6d 3e ab f9 1c bd ef 35 8b be
       -0.19390433 0.2316803 -0.03832404 -0.27189586
000270 79 98 b1 3c 78 3f 8a 3e d7 50 fb bc ce de c8 bd
       0.02167915 0.27001548 -0.030678196 -0.098081216
000280 d2 6a ff 3d 4c 7a dd bd 24 7d 2b be 12 2c 46 be
       0.12471546 -0.10814342 -0.16746956 -0.19352749
000290 75 1e 79 3e ad 67 26 3e 1c db 3f bd 83 17 11 3e
       0.24328025 0.16250487 -0.04683982 0.14169125
0002a0 bd 91 b3 bd 10 4c 1d be 72 ef e9 be b8 55 46 be
       -0.08768032 -0.15361047 -0.45690495 -0.19368637
0002b0 1f 8f be 3e f4 80 90 3e 8b 95 1d 3e 1b cc df bd
       0.37218568 0.28223383 0.15389077 -0.10927602
0002c0 01 5e 28 be f3 b8 a2 be af 42 58 be 09 cb 6a 3d
       -0.1644211 -0.3178173 -0.21119188 0.057322536
0002d0 a1 2f 53 3e aa 4c 1f 3e 68 a4 70 be cb fe 0a be
       0.20623638 0.15556589 -0.23500216 -0.13573758
0002e0 47 6f 1a 3c 58 b8 25 3d 14 cf f0 bd 44 8f 8a bc
       0.009425945 0.040459007 -0.11758247 -0.016914017
0002f0 4c a3 0e 3e a1 e4 c8 be 59 15 0c 3d 91 e5 03 3e
       0.1392948 -0.3923693 0.034200046 0.12880541
000300 15 e4 50 3e 30 4b 0a 3d 36 93 3b be 54 41 ed bc
       0.20399506 0.03376311 -0.18317875 -0.028961815
000310 f0 ec 17 be 82 10 ea bc f2 56 1f 3e e4 85 c0 bd
       -0.14836478 -0.028572325 0.15560511 -0.094005376
000320 78 c8 5e 3c 2b dc 2d be 53 cf 8b 3e 6e 28 8b 3d
       0.0135976 -0.16978519 0.27306613 0.06794821
000330 11 b0 35 be d7 d8 02 be ba 59 3c 3e 6c 60 91 bd
       -0.17742945 -0.1277803 0.18393603 -0.07098469
000340 07 f2 a8 3d 23 b0 ca 3d a7 8c f1 3c 36 b2 e6 bc
       0.08249288 0.09896877 0.029486014 -0.02816115
000350 43 c6 68 be 72 7f 16 3e ca d5 3a 3e 45 4c 02 3b
       -0.22731881 0.14697054 0.18245617 0.0019881886
000360 d2 18 90 3d 86 47 d0 bb 59 76 98 3d b9 ef c2 be
       0.07035984 -0.0063561825 0.07444448 -0.3807352
000370 e5 52 6a be 5e ab a6 3e 8f e9 3a 3e 2e e0 29 3e
       -0.22883184 0.32552618 0.18253158 0.16589424
000380 e3 2a 2b bb 62 ca 2e 3d 21 d0 21 be 84 f9 48 be
       -0.0026118092 0.042673476 -0.15802051 -0.19626433
000390 59 18 1d ba a3 d0 b4 3d 03 7b e9 39 c6 fc 04 3d
       -0.0005992703 0.08828857 0.00044532874 0.032467626
0003a0 30 60 54 3c ce e6 a3 3d f4 cd a4 3c 3a 45 12 be
       0.012962386 0.08003007 0.020117737 -0.1428422
0003b0 aa 72 06 bb ce 10 e9 3c 4b 8f bc bd 84 01 df 3c
       -0.0020515122 0.028450396 -0.092070185 0.027222402
0003c0 e6 10 bc 3d 70 a7 46 3d 43 95 62 bd d2 09 55 be
       0.091829106 0.048499525 -0.05531813 -0.20804527
0003d0 90 69 e7 bd df 55 1a be 68 5f 84 3d 9f ef 67 3e
       -0.11299431 -0.1507182 0.0646351 0.22650002
0003e0 07 c2 d1 bd 38 75 4d 3d 22 5f 66 be 57 6d df 3d
       -0.10242086 0.050160617 -0.22497228 0.10909527
0003f0 a8 d9 8e 3d 71 87 d7 bd 64 18 7c 3b 38 71 2c 3e
       0.069751084 -0.1052388 0.0038466686 0.16840065

conv1.conv2d.bias f4 [8]
000000 28 59 c1 3c 7a 8d 3d bd d8 60 6e 3d e4 0d a6 3d
       0.023602083 -0.0462775 0.058197826 0.08108118
000010 c2 56 1e 3e db 7d b7 3c bf e8 cf bd 78 2a 32 be
       0.15462783 0.02239888 -0.10151815 -0.17399013

in1.weight f4 [8]
000000 3e 4b f2 3f 21 00 32 3f 58 f3 c4 3f 9c c5 0d 40
       1.8929212 0.69531447 1.5386763 2.215186
000010 af 23 16 3f 25 51 a3 3f 7c 2c ff 3f 82 ca 07 40
       0.586482 1.2759138 1.993545 2.121735

in1.bias f4 [8]
000000 40 d9 e4 3e f6 9f 0a 3e 32 58 5d 3f 5b 6e 1e 3f
       0.44697 0.13537583 0.864627 0.6188714
000010 8b 5d de 3e 09 5d a3 3f 39 00 53 3f ff 7f 25 3f
       0.43430743 1.2762767 0.82422215 0.6464843

res1.conv1.conv2d.weight f4 [8, 8, 3, 3]
000000 c9 0a fb be 84 42 36 bc 45 c1 ed be 0a a4 cb bd
       -0.49031666 -0.011124257 -0.46436515 -0.09943397
000010 a7 b6 a8 bd 6c 98 11 bd ca 1b ea 3e 8f 81 22 3e
       -0.08237963 -0.03554575 0.45724326 0.15869735
000020 3f 3d 49 3e b0 01 8b 3e 4b 49 25 bd 12 9a ee be
       0.1965227 0.27149725 -0.0403531 -0.4660192
000030 72 bf aa bc 28 74 5a 3e 5c f9 07 3e af 56 4a 3e
       -0.020843241 0.21333373 0.13278717 0.1975963
000040 a2 5c 82 3d 5b 57 b9 3d 59 67 67 bc 95 0e 90 3e
       0.063653246 0.09049865 -0.014123761 0.28136125
000050 f1 84 06 be 25 21 fe 3b f8 a4 9c 3d 66 ef 0a bd
       -0.1313665 0.007755416 0.07648653 -0.033919714
000060 2a 6a 1b be 88 6f 8a 3d a3 41 88 3d 4f c1 fc bd
       -0.15177217 0.06759554 0.06653144 -0.12341558
000070 22 d8 6a 3d 69 2e 17 3e 6d 1d 1a be e1 b1 4b 3e
       0.057335027 0.14763798 -0.15050288 0.19892074
000080 1c 8b b6 3e 4f 99 b0 bc 1f 42 2a 3e de de 30 bd
       0.35653007 -0.021557478 0.16626786 -0.043181293
000090 98 1f 6c bd ce 91 00 3e 44 4b 74 3d 7b fe 82 bc
       -0.057647318 0.1255562 0.05964209 -0.015990486
0000a0 65 ad e1 3d 15 35 5a bd e9 40 2e 3d 63 c6 83 3e
       0.110194005 -0.05327328 0.042542372 0.25737295
0000b0 b9 84 41 3d b8 0e ae 3c 34 39 9a 3e ab 7d 91 bc
       0.047245715 0.021247253 0.30121768 -0.017760118
0000c0 dc 09 b3 bc cf 60 b2 3d ec 72 6c be 0f 93 dd 3c
       -0.021855287 0.08709871 -0.23090714 0.027047662
0000d0 3e 40 ee 3b 0c fc 8d bd c6 62 25 be 0d b8 f7 3d
       0.007270842 -0.0693284 -0.1615096 0.12095652
0000e0 19 d9 96 bd a2 58 d7 3c aa 6b 03 3e 9c 1b ae bd
       -0.07365627 0.02628738 0.1283404 -0.0850136
0000f0 f7 f7 45 3d 2b bc 08 be 21 87 d2 be 4e f0 15 bd
       0.04833218 -0.1335303 -0.4111872 -0.036606126
000100 4f 24 84 bd cb 31 eb 3d c8 01 17 bd 61 e5 1a be
       -0.06452238 0.11484107 -0.036866933 -0.15126564
000110 ee 0d a2 3d 79 63 0f be 81 29 3a 3d e8 f0 f3 3d
       0.07912813 -0.1400279 0.045449737 0.119111836
000120 1f ed 0c be 99 45 2c 3e ad 34 d1 3d 5d e3 4c be
       -0.1376233 0.16823424 0.10215125 -0.20008607
000130 dc df 3f be cb 58 da bd 4e 94 f2 3d c7 33 79 bc
       -0.1873774 -0.10661467 0.11844693 -0.015210099
000140 80 88 a9 bd a3 9c 74 be 66 96 3f bd 9d b7 13 be
       -0.082779884 -0.23887877 -0.04677429 -0.14425512
000150 63 db fd 3c 63 f3 5d 3e 32 ea ee 3a 6b 61 97 be
       0.0309884 0.21674876 0.0018227755 -0.29566512
000160 aa 02 3c be 37 c7 bb be d1 24 34 be 33 c1 2d bd
       -0.18360391 -0.36675426 -0.1759217 -0.042420577
000170 8a 69 54 bd 3e dc 01 3c 79 be e9 bc 60 e0 e5 3c
       -0.051858462 0.007926045 -0.028533207 0.028061092
000180 15 2a c6 bd ff 97 af bc 75 06 6f be 0d 34 2f 3c
       -0.09675995 -0.021434782 -0.23342307 0.010693562
000190 94 db 99 bd f1 c0 a0 bb 43 08 f2 bc 8a ce b7 bd
       -0.07512584 -0.004905813 -0.029544955 -0.08974941
0001a0 1f c6 5e bd 9b 5c 0b be 5c 7c 56 bd be 33 ac bd
       -0.05438816 -0.13609545 -0.052364692 -0.084083065
0001b0 99 4c e3 3e 81 4c ec bd 41 94 90 3e 40 e7 9e 3e
       0.44394377 -0.115380295 0.2823811 0.31035805
0001c0 ae 85 ce bd a6 b7 a8 3e b7 a4 60 be b6 28 09 be
       -0.10084091 0.32952613 -0.21937834 -0.13394436
0001d0 3c 50 50 bd 4d dc fa bd 82 7c 0b be 8a 78 41 be
       -0.050857767 -0.1224905 -0.13621715 -0.18893638
0001e0 d3 99 c0 3d e4 42 b8 3d ed d0 b3 bc 40 b1 e8 bb
       0.0940434 0.089971334 -0.02195021 -0.007101208
0001f0 1d 3c 32 3d c0 22 82 3d 24 10 e1 3d 67 58 19 3e
       0.04351436 0.06354284 0.10989407 0.14975129
000200 8c 41 23 3e 2b d1 b7 be 31 08 13 be 4f de 56 be
       0.15942973 -0.3590177 -0.14358594 -0.20983241
000210 3a fe 9e 3e 9e 24 90 3e e5 44 9e 3e 94 4b 47 be
       0.31053334 0.28152937 0.30911937 -0.19462425
000220 75 47 c2 3d 48 fd 5f 3e 0e 3e 61 be fc a5 d9 bd
       0.094862856 0.21873963 -0.21996328 -0.10627362
000230 58 1e 49 be f4 a5 1e 3e 85 25 80 3e ba 6b cb 3e
       -0.19640481 0.15492994 0.25028625 0.39730626
000240 ef 02 9c 3d c8 c9 b3 bd ea a1 19 bd e5 9c c4 bd
       0.07617747 -0.08778721 -0.03750793 -0.09600238
000250 4f 26 cc 3d 50 2f 5c 3d c8 32 0d bc 91 58 19 3e
       0.09968244 0.05375606 -0.008618064 0.14975192
000260 a5 c2 12 3d 2a d5 b2 3e 85 56 ac 3d 1e cc ea bc
       0.03583016 0.34928256 0.0841494 -0.028661784
000270 39 01 ad 3d 8a c1 45 be 8b e3 83 3d b3 08 70 be
       0.08447499 -0.1931211 0.06439885 -0.23440818
000280 04 9d 16 3d cf c1 4f 3d a0 d2 58 bd e2 67 b9 3d
       0.036770836 0.05072194 -0.052935243 0.09053017
000290 6b 38 17 be 19 fd 91 bd f9 b3 e0 3d 98 66 ab 3c
       -0.14767615 -0.07128353 0.10971827 0.020922944
0002a0 d6 ed 87 be 5c 4e 04 3b 11 8b 1d be ce a9 b6 3b
       -0.26548642 0.0020188307 -0.15385081 0.0055744415
0002b0 bd 03 0d 3e 2c d1 44 3e aa 8d 34 3e bb 90 43 bf
       0.13770957 0.19220418 0.17632166 -0.76392716
0002c0 27 31 b0 be 0f 6b 05 be 53 d6 03 3e 34 ac e8 3e
       -0.344125 -0.13029121 0.12874727 0.4544388
0002d0 2f 1e f2 bd 3e ea cc bd 23 99 bf 3d 33 a1 22 be
       -0.11822163 -0.10005616 0.093553804 -0.15881805
0002e0 95 0d 76 3c 2c 91 20 bd ae f6 d1 3d c5 50 e5 bd
       0.015017887 -0.039200947 0.102521285 -0.11197046
0002f0 ed e6 25 bd ab 83 a5 be a0 c2 81 3c 94 a4 5c 3e
       -0.04050343 -0.32327017 0.015839875 0.21547157
000300 24 5e 04 3e c9 27 af 3d 1c 72 99 bd a8 1e 04 3e
       0.12926537 0.0855251 -0.07492468 0.1290232
000310 25 16 67 bd c8 f8 5d 3d 12 12 1c 3d 18 72 2c be
       -0.056417603 0.054192334 0.03810317 -0.16840398
000320 00 cd fd bd 03 30 f5 3c 70 91 06 3e 57 59 0e 3e
       -0.12392616 0.02993012 0.13141418 0.13901268
000330 d7 9e 44 bc 83 bb 44 3e 4c 05 c2 3d 9d 5a 00 3e
       -0.012000761 0.19212155 0.094736665 0.12534566
000340 1d a7 d9 3d 8e 85 95 be 86 90 cb 3d 45 3c 16 be
       0.106275775 -0.29203457 0.09939675 -0.14671429
000350 70 53 e1 be d4 e0 81 bd 01 73 ef bd 4c b0 b8 bd
       -0.4400897 -0.06341711 -0.11691857 -0.09018001
000360 13 07 51 be bd 62 54 be df 88 42 3d b8 82 09 be
       -0.20412855 -0.2074079 0.04749381 -0.13428771
000370 41 5e 39 3e 17 5e e3 3d 58 f9 70 3e 39 7d 10 3d
       0.18102361 0.111019306 0.23532617 0.03527567
000380 0b 98 1d be 38 80 8d 3e 59 b3 a3 3c 76 75 90 be
       -0.15390031 0.27636886 0.01998298 -0.28214616
000390 cd 6b f1 bd af 5d 86 be 25 f7 1b bd 71 e0 8b be
       -0.117881395 -0.2624335 -0.038077492 -0.27319673
0003a0 08 ce b2 3d 07 a9 1f bd 1b 8e c5 be f6 54 f8 bc
       0.087307036 -0.038979556 -0.3858498 -0.03031395
0003b0 ba 8d 85 3e 50 77 74 be 29 af 0b 3e 71 55 54 3d
       0.2608469 -0.23873639 0.13641037 0.051839296
0003c0 e2 5b c5 3e 54 dd a0 3c 55 15 e4 bd 1e 61 2b be
       0.38546664 0.019636787 -0.11136881 -0.16736266
0003d0 36 3d a3 3c ff 92 43 ba 0a f0 14 bc af 83 e9 3c
       0.019926649 -0.0007460564 -0.009090433 0.028505174
0003e0 23 fa 0c be dc cd 84 bc 65 ac 05 be e3 46 47 bd
       -0.13767295 -0.016211443 -0.13054045 -0.048651587
0003f0 e8 ec 1d 3d 8e aa b8 3d e9 23 89 be 93 63 6e 3e
       0.03855601 0.09016906 -0.2678521 0.23280172

res1.conv1.conv2d.bias f4 [8]
000000 71 08 3b be b4 c9 93 bd e6 94 10 bf db c2 c8 3d
       -0.18264939 -0.07216206 -0.564772 0.09802791
000010 73 ef 0c be 11 8a 10 3e 7a a7 48 3e 5c 79 02 3e
       -0.13763218 0.14115168 0.19595137 0.12741607

res1.in1.weight f4 [8]
000000 4d 97 1c 3f 77 86 15 3f e1 5b 8a 3f ff 70 80 3f
       0.61168367 0.584083 1.0809289 1.0034484
000010 00 e6 08 3f 8a d0 a9 3e f5 63 49 3f 87 4f 8b 3f
       0.5347595 0.33166915 0.7866815 1.0883645

res1.in1.bias f4 [8]
000000 2e 59 28 be 8b 87 7f bf 2d 20 1e be 0e a2 d5 bf
       -0.1644027 -0.998162 -0.15441962 -1.669008
000010 20 ce 7a bc be 67 8e 3f 87 4e 8e bf 34 79 3f 3d
       -0.015307933 1.112541 -1.1117715 0.046746448

res1.conv2.conv2d.weight f4 [8, 8, 3, 3]
000000 d6 2c a0 3d d9 ec f0 3c a8 27 ab 3d 0d ee 8e bd
       0.07821052 0.029409813 0.08357173 -0.06978998
000010 2e 44 88 be 98 e4 15 be 92 48 b0 3e 6e 0f 47 3e
       -0.26614517 -0.14637983 0.34430367 0.1943948
000020 84 e3 93 3d 26 10 01 3e 41 53 05 bc de 87 95 bd
       0.072211295 0.12603816 -0.008137525 -0.07301305
000030 94 8c 2d 3e c9 86 80 3e bc 3f 34 be 68 4f a2 bc
       0.16948158 0.25102833 -0.17602438 -0.019813254
000040 c8 b9 98 3d a1 90 ab 3d b7 69 00 3e 1f 24 8d bd
       0.0745731 0.08377195 0.12540327 -0.06891655
000050 e2 a9 ba be 62 46 97 bd 3f b9 a0 3d 47 a8 d0 3d
       -0.36457735 -0.07386471 0.07847833 0.10188346
000060 77 6c 77 be 3c 09 65 bd f5 c1 2d be 5c 00 ce be
       -0.2416247 -0.05591701 -0.1696852 -0.4023465
000070 83 c5 06 3e 70 e4 4d 3d 23 88 cb 3e a3 6a 55 3d
       0.13161282 0.050266683 0.39752302 0.05210365
000080 77 a4 55 3b 24 56 ae bc bd f6 3b be d8 01 6e bd
       0.003259925 -0.02128131 -0.18355842 -0.058107227
000090 2a 27 8a 3c 2e 2d 03 bd fe 37 a4 bd c7 d5 3d 3c
       0.016864378 -0.03202551 -0.08018492 0.011586613
0000a0 0d f8 72 3b 15 8a c3 bd 79 de 42 be 4a b3 92 be
       0.003707412 -0.095478214 -0.19030179 -0.28652412
0000b0 35 7a e8 bd 43 dd 3a 3d 76 d7 03 3d 7b 9a 97 3d
       -0.11351434 0.045621168 0.0321879 0.07402512
0000c0 c1 91 c7 bc 10 8d af bd e4 ec 81 bd e0 92 96 3d
       -0.024361493 -0.085718274 -0.063440114 0.07352233
0000d0 9f 34 d6 3d d8 0e ed 3d 64 27 04 3e 6f 83 92 be
       0.104592554 0.11575097 0.12905651 -0.286159
0000e0 4d 71 78 3e 7c 0b 2a 3d 64 a8 33 be f9 38 70 3d
       0.24261971 0.04151486 -0.17544705 0.058648083
0000f0 ad 06 75 bd 26 f5 e9 bd 3b d6 13 3d 09 32 6a 3e
       -0.05982082 -0.114237115 0.036092978 0.2287065
000100 ac 5a 0f 3e e0 01 24 3d a5 e2 66 bc 99 e8 9e bd
       0.13999432 0.04004085 -0.014092122 -0.07759208
000110 c8 4e 42 3e b5 cc 99 be 83 ad 11 be 8e d5 68 3d
       0.18975365 -0.30038992 -0.14226346 0.056844287
000120 ed 5d 17 3e 93 61 e0 bd 27 9f a6 bd cb 29 4f 3d
       0.14781924 -0.10956111 -0.08135825 0.050576966
000130 d7 00 18 be 3b be 33 bd da 2c 21 3d c4 61 ca 3d
       -0.1484407 -0.04388259 0.039349414 0.098819286
000140 a9 40 b8 3d e4 8a ac 3d 70 7a 90 3c 33 0c 1e be
       0.08996708 0.08424929 0.017636508 -0.15434341
000150 f8 39 5f bd 1c 1b 85 3d 78 03 18 3e ce 25 66 3e
       -0.054498643 0.06499311 0.14845073 0.22475359
000160 4b 3f e1 bc f1 69 d6 bd ce 70 bc be f4 db 5f be
       -0.027496 -0.104694255 -0.36804813 -0.21861249
000170 e5 32 9a be 48 7a c3 be 6f ab 44 3d 32 eb 4f 3e
       -0.30116954 -0.3817923 0.048015054 0.20304564
000180 7c 4b 62 be 82 80 7f 3e fe 6b 48 be 42 e8 b0 3e
       -0.22099108 0.24951366 -0.19572446 0.345522
000190 f6 e2 63 3e 32 e4 a9 3e 40 82 d9 bd b3 55 49 3e
       0.22254547 0.33181912 -0.10620546 0.19661598
0001a0 7b 77 91 be 75 76 18 3e d4 de c8 be 3c 95 79 bd
       -0.2841147 0.14888938 -0.39232504 -0.060933337
0001b0 64 0c 6e be da 5e 28 3e f4 c2 34 3e 84 bf 09 3d
       -0.23246914 0.16442433 0.17652494 0.03362991
0001c0 f6 66 13 3b 87 62 76 bd 28 fb 16 3e 04 a8 bd 3d
       0.002249179 -0.060152557 0.14744246 0.09260562
0001d0 4d 89 3c bc 5b a7 92 bd c8 77 6d 3e 98 96 8e bd
       -0.011507344 -0.07160827 0.23190224 -0.06962317
0001e0 a7 50 ba 3c 84 d7 22 3d be f8 b9 bd 45 83 91 be
       0.022743536 0.039756313 -0.09080647 -0.28420463
0001f0 3f 08 40 be 47 34 16 be 15 72 ea 3d 69 32 05 bd
       -0.18753146 -0.1466838 0.11447541 -0.032518778
000200 57 30 a2 3c 6a c2 24 3e c3 61 af 3c 8c a1 f4 3d
       0.01979844 0.16089788 0.021408921 0.11944875
000210 8b 81 93 bd cd 15 b8 3d f8 7c bb bd 44 54 8c bd
       -0.07202443 0.08988533 -0.09154695 -0.0685201
000220 a9 ec 44 3e 31 08 3f 3e 3b 42 35 3d 86 7f 79 3e
       0.19230904 0.18655469 0.044252615 0.24365053
000230 52 b3 ff bd 86 50 7d 3e 17 27 f5 3d 86 89 79 bd
       -0.124853745 0.24737749 0.119703464 -0.06092217
000240 20 da 4e bd ef 25 14 bd 05 a5 05 3e 29 60 ca bd
       -0.05050099 -0.03616899 0.13051231 -0.09881622
000250 9f 54 c7 3d 3d 62 9b bd 8b 25 82 3d 67 0d cf bd
       0.09732937 -0.07587097 0.06354817 -0.10109978
000260 02 da 91 bd 4a a6 1f bd dc e1 b7 3d 9a d7 fc 3c
       -0.0712166 -0.038976945 0.08978626 0.030864526
000270 22 51 ae 3a a2 44 9e 3d e3 aa 3b bd 67 dc 7b bb
       0.0013299326 0.077279344 -0.045817267 -0.003843093
000280 8c 06 7c bd eb d6 ad 3d ee bc 89 bc c0 76 86 3e
       -0.06152968 0.08488258 -0.016813722 0.26262474
000290 f7 00 a1 be e6 26 c5 3e f4 42 0f be 41 4f 74 3d
       -0.3144605 0.3850624 -0.13990384 0.059645895
0002a0 d8 2e 3b be ba d2 4c be 1f 94 90 3e a2 66 33 3e
       -0.18279588 -0.20002261 0.28238007 0.1751962
0002b0 c3 3d 79 be 4c 4e a3 3e 2b aa 89 3c e8 5b 61 bd
       -0.24339966 0.31895673 0.016804775 -0.05501929
0002c0 37 a6 94 be 47 69 4d 3e a5 49 a1 be f2 d2 91 3e
       -0.29033062 0.20059691 -0.315015 0.2848125
0002d0 0a 12 be 3d ac 7b 77 bd 58 0a d1 bb 1c c0 72 3d
       0.092807844 -0.060420677 -0.006379407 0.05926524
0002e0 05 87 0d bd 1a 62 48 3d 36 53 52 bd 53 d4 07 3d
       -0.034552593 0.048921682 -0.051348887 0.033161473
0002f0 3f 22 da 3c 27 b2 0e bd 7d 53 17 3d d2 62 13 be
       0.026627658 -0.034837868 0.036944855 -0.14393166
000300 03 7d 9b 3d c8 4c ed 3c 0a 9f 8c 3d e6 7e 62 be
       0.075922035 0.028967276 0.06866272 -0.2211872
000310 10 d4 aa 3d a4 69 7c 3d e8 01 dd be 74 a1 2a 3e
       0.08341229 0.061624184 -0.43165517 0.16663152
000320 5d 37 41 3e 79 fb 34 3e 0a 57 89 3e 45 4b d7 be
       0.18868776 0.17674054 0.26824218 -0.42049614
000330 cc e7 49 3e 58 21 ab be 25 ad 82 3e 43 f5 4d 3e
       0.1971733 -0.33423877 0.25522724 0.20113091
000340 78 d2 a5 bd 11 54 74 bd eb c3 d0 ba e3 26 d5 bd
       -0.08096784 -0.059650484 -0.0015927529 -0.10407808
000350 47 9c c8 bd d2 74 e8 bd 3e 3e 1c bd 08 de e7 3d
       -0.097954325 -0.11350407 -0.038145296 0.11321646
000360 2d 0d 67 bd 4e 3d e5 bd 0f 5c 81 3d 49 94 c7 3c
       -0.05640905 -0.111933336 0.06316387 0.0243627
000370 f3 b9 6a bd 5b 4d 9b bd 34 80 38 3d af b5 29 3d
       -0.05730624 -0.07583114 0.04504414 0.041433033
000380 9c 05 e0 bc 2e 42 1a be 99 2d c8 3c fd 3b 98 3d
       -0.027346425 -0.15064308 0.024435805 0.07433317
000390 e9 34 8b bd 1e aa ec 3d 92 2a b5 bd 93 5c 6f bc
       -0.06797201 0.11555885 -0.0884601 -0.014609474
0003a0 f3 92 b1 3d be 19 2b bd 1a 9f 4c 3c 6e 42 0d 3e
       0.086706065 -0.041772597 0.012489105 0.13794872
0003b0 bb d1 17 be 2d 7a 45 be e8 28 24 3d 87 ee 5a 3e
       -0.148261 -0.19284888 0.040078074 0.21380053
0003c0 94 73 42 3d 01 63 e2 bd 7f 11 ef 3d 56 75 8a bc
       0.047473505 -0.1105404 0.11673259 -0.016901653
0003d0 9e a8 68 bc 6f eb 01 be 2e fe cd 3d f1 b0 57 3e
       -0.014200358 -0.12687467 0.100582466 0.21063592
0003e0 3f 97 7a 3d 9a c5 e8 bc 54 e0 b0 bd 8d 9a 9e bb
       0.061179396 -0.028414536 -0.08636537 -0.004840201
0003f0 8f 84 89 3d cb 70 07 3d 06 a9 d3 3d d4 cc e4 bd
       0.06714737 0.033066552 0.10334973 -0.1117188

res1.conv2.conv2d.bias f4 [8]
000000 0f 69 af 3e 40 e4 ad bd 11 ea fc bd 3e 88 48 be
       0.3425984 -0.08490801 -0.12349332 -0.19583222
000010 77 2b 9f bc 4f 51 81 3d ed 7b bb ba f6 51 49 3e
       -0.019429905 0.063143365 -0.00143039 0.19660172

res1.in2.weight f4 [8]
000000 bb af 10 40 7d 07 18 40 d0 c6 14 40 2c 0b 03 40
       2.2607257 2.375457 2.3246346 2.0475569
000010 3b 85 27 40 49 3c fc 3f 29 25 f4 3f 35 2e e3 3f
       2.6175067 1.9705898 1.907384 1.7748476

res1.in2.bias f4 [8]
000000 e7 c2 63 3f 72 ec a9 3f 8e 39 83 3f 77 42 d0 3f
       0.8896927 1.3275282 1.0251939 1.6270283
000010 29 63 c3 3f 69 32 be 3f ba 5c 6b 3f 87 c7 da 3f
       1.5264636 1.4859134 0.91938365 1.7092141

deconv3.conv2d.weight f4 [3, 8, 7, 7]
000000 c4 65 9b be 42 e8 23 be 8c db c3 bd e8 3e 7a 3e
       -0.3035108 -0.16006568 -0.095633596 0.2443806
000010 f3 ed 01 3e b0 a1 b1 be 17 8c ee be e4 37 b6 3c
       0.12688427 -0.3469367 -0.46591255 0.022243448
000020 6e 30 b2 bd 3f c9 8e be 88 00 55 be 56 02 6f be
       -0.087006435 -0.27887914 -0.20800984 -0.23340735
000030 3e 0d 37 3e 34 73 bc be a5 44 41 3d b9 83 09 3f
       0.17876145 -0.36806643 0.047184605 0.5371662
000040 af 13 be 3e c6 95 2c 3f 93 35 8f 3f 4b 51 e5 3e
       0.37124392 0.67416036 1.1188225 0.44788584
000050 8f 46 61 bf 91 f9 40 bd 68 68 f9 3d 4b b0 98 bb
       -0.8799829 -0.047113005 0.12178117 -0.0046596876
000060 bb fd 32 3f 57 d7 cf 3f 35 05 10 3e 30 de dc bd
       0.6991841 1.6237592 0.14064486 -0.107845664
000070 71 2c ad 3e 02 53 d7 3c 7f f1 36 bf 25 b0 08 3f
       0.3382297 0.026284698 -0.71462244 0.53393775
000080 ca 04 8a 3e 56 3e bd 3e ce a1 32 3e 92 b6 75 3e
       0.2695678 0.3696162 0.17444536 0.23995426
000090 b9 7c 27 3e f0 da 09 3f 54 cf 00 3f 76 a4 5c be
       0.16356172 0.538497 0.5031636 -0.21547112
0000a0 45 d3 82 bf 9d 2c e6 be 4f 1a 9f bf 08 52 22 bf
       -1.0220724 -0.44955912 -1.2429904 -0.6340642
0000b0 85 52 03 bf fa c5 03 be d2 16 bc 3e c8 63 8e be
       -0.5129779 -0.12868491 0.3673616 -0.27810502
0000c0 84 39 01 bf 29 27 b8 3e 04 30 f7 3d 9b 67 86 3d
       -0.50478387 0.35967377 0.12069705 0.0656273
0000d0 f2 3f 86 ba 53 ac 37 bf 48 a9 66 be 1b 48 a5 bf
       -0.0010242446 -0.7174732 -0.22525513 -1.291263
0000e0 9c a9 8d be 16 23 80 3d 26 b8 07 3f f1 ae 16 be
       -0.27668464 0.06256692 0.53015363 -0.14715172
0000f0 1d 49 8e be 97 e8 b0 3d 48 ce 7e 3c ad 29 b7 be
       -0.27790156 0.08638113 0.015552111 -0.35773984
000100 33 d2 69 be 3c f3 8a 3e 3a b0 07 3e b5 ad 3e be
       -0.22834091 0.27138698 0.13250819 -0.18620951
000110 86 90 84 bd 0c 49 8c 3d 1c 5b ee be 7b e9 3b 3d
       -0.06472878 0.0684987 -0.46553886 0.04587696
000120 85 05 c5 3e 75 98 8a 3e 50 e2 ec be cc 83 96 be
       0.38480774 0.2706944 -0.46266413 -0.29397428
000130 1d 79 6a 3d 68 09 c7 be 81 dd 8b 3e 57 d3 18 3d
       0.05724441 -0.38874364 0.27317432 0.037310924
000140 b1 c0 cf bb c9 9a 1d bf ac a9 4f bc d5 21 a2 3e
       -0.0063401093 -0.6156431 -0.01267473 0.31666437
000150 2b 38 b4 be b6 b6 a3 be 96 e9 2a 3d f4 0c 5b 3e
       -0.35199103 -0.31975335 0.04172667 0.2139166
000160 c5 30 dc 3d 57 28 8b 3f 04 d7 de 3e 7a 3b b8 bf
       0.107514895 1.0871686 0.4352342 -1.4393151
000170 74 36 95 be e1 a6 f0 3e eb 46 1d 3e d7 44 b3 3e
       -0.29143107 0.47002319 0.15359084 0.35013458
000180 1e 4b 35 3f 99 46 3b 3f 16 77 45 bf 90 62 27 bd
       0.70817745 0.731546 -0.77134836 -0.04086548
000190 04 01 3a be 7e 77 bb bd d2 3a 0b bf c6 58 dc be
       -0.1816445 -0.09153651 -0.5438663 -0.4303648
0001a0 ef 48 b1 bf 77 fe 2e be ea bb 60 3e cf 46 26 bd
       -1.3850383 -0.17089258 0.21946684 -0.040594872
0001b0 45 b5 51 be 9f 81 22 3e 3f 14 b4 be 59 63 65 be
       -0.20479305 0.15869759 -0.35171697 -0.2240118
0001c0 02 53 7f be 9d 0e ad be 29 53 dc bd e6 38 01 3e
       -0.24934009 -0.33800212 -0.10758049 0.12619361
0001d0 63 21 89 be 33 b5 0d 3f 91 7d 25 3d 72 6e c6 be
       -0.26783285 0.55354613 0.040402953 -0.38756138
0001e0 4d 0f 4c 3e 61 c6 e7 be d8 b6 39 bf c6 3d 2c 3f
       0.19927712 -0.4526854 -0.7254462 0.6728176
0001f0 89 ec 8b 3e 9a cf fe 3d cf e0 20 3e 75 19 be bd
       0.273289 0.124419406 0.15710758 -0.09282199
000200 83 5d 98 be 07 05 d7 bd b2 23 e6 3e 92 ef 24 bf
       -0.29758844 -0.10499006 0.44949108 -0.64428055
000210 a3 ce b0 be 55 4c 01 bf 2c 05 17 bf 28 7d 7f bc
       -0.3453265 -0.505071 -0.58992267 -0.015593804
000220 57 05 7b 3f e2 e6 f7 be f8 39 21 bf 2e 5c 5a bf
       0.9805502 -0.48418337 -0.6297908 -0.85296905
000230 02 2c b2 bf 64 1d 01 bf ce a0 42 3f 20 f1 b8 be
       -1.391968 -0.5043547 0.7602662 -0.36121464
000240 bb a2 05 bf 58 70 41 bf 35 c5 34 be 23 bb 8f 3e
       -0.5220143 -0.7556205 -0.17653354 0.2807246
000250 10 b0 03 3f 0c ca dd 3e 98 75 52 3e ad 9e 62 3e
       0.51440525 0.43318212 0.20552671 0.22130843
000260 f2 5e 9c ba 2a 38 71 3f 27 04 1c 3f 20 ef db 3d
       -0.0011930151 0.94226325 0.60943836 0.10738969
000270 59 7e d1 3e dd dc e5 bd 65 32 99 3d 2a 6f df 3e
       0.40916708 -0.11223767 0.07480315 0.436395
000280 0b ba 6e 3d b8 b2 59 3e 74 fb a3 3e 8e 38 bb be
       0.058282893 0.21259582 0.3202778 -0.36566585
000290 d3 95 4c 3f 0d fc cd 3e 6e 1c 0c 3f 74 4e 0a bd
       0.79916114 0.40231362 0.5473088 -0.033766225
0002a0 96 e7 a3 3e 23 d7 d8 bd bf 57 4c bf 5f b5 d5 be
       0.32012624 -0.10587909 -0.7982139 -0.41739938
0002b0 81 92 a6 3f 35 2e f1 3e da 09 2c 3f 60 ce e6 3e
       1.301346 0.47105566 0.6720253 0.45079327
0002c0 c4 bf aa 3e 5a 4f 8d 3e 06 ce 87 bf 09 8b 88 3e
       0.3334943 0.27599603 -1.0609748 0.26668575
0002d0 51 79 5f 3f f0 73 35 3e b7 e6 5c 3e 0b f3 59 3e
       0.8729449 0.17720008 0.21572386 0.2128412
0002e0 af ec df 3e 5d 23 f1 3e eb 86 62 bf f0 cc af 3e
       0.43735263 0.47097293 -0.8848712 0.34336042
0002f0 4b c2 06 3f d4 8b 84 3e 06 a2 05 be 60 a0 00 3e
       0.5264022 0.2588793 -0.13050088 0.12561178
000300 38 70 33 3e e3 d5 8e 3e 01 17 f0 bc ea 0c 5a 3f
       0.17523277 0.27897558 -0.029307844 0.85175955
000310 7f ff 63 bc f4 24 7f be f4 00 b3 bc b3 a6 f6 be
       -0.0139158955 -0.2491644 -0.02185104 -0.48174056
000320 3c f1 92 3d c1 fe e1 be 46 1a 36 3e 79 ac 7d 3d
       0.07174918 -0.44139674 0.1778346 0.06193206
000330 b3 74 33 3e d9 3f c9 3e 57 66 2d 3e 4d 80 93 be
       0.17524986 0.39306524 0.16933571 -0.28808823
000340 f2 d7 b8 3e 61 75 da 3e a6 9e e8 3e b6 d1 47 3d
       0.36102253 0.42667678 0.4543354 0.04878398
000350 0e a2 20 3f b5 81 07 3f fb db b6 ba f2 a7 3e 3f
       0.62747276 0.5293229 -0.0013951057 0.74475014
000360 b8 77 11 3f 13 31 3d 3e 44 69 f7 bd bd 2b a2 3d
       0.568233 0.18475752 -0.12080625 0.07918499
000370 e7 6c 65 bf 05 e7 32 bf a5 57 81 3d b5 ce 08 be
       -0.89619297 -0.6988376 0.06315545 -0.13360102
000380 8d b5 a7 3d 9d db 32 bd ba 56 b2 3e 4b 58 aa be
       0.08188925 -0.04366647 0.34831792 -0.33270487
000390 4c 20 96 bf 3a 63 cf be b7 53 6e 3d c3 75 98 3e
       -1.1728606 -0.4050539 0.058185305 0.29777345
0003a0 d4 bb b6 3c d4 dd 41 3f fc 02 48 3f 47 e9 a3 3d
       0.02230636 0.7572911 0.78129554 0.080034785
0003b0 86 1c 45 3e 38 25 b8 bd 20 c5 8e 3e 6a 2b 3d be
       0.19249162 -0.08991474 0.2788477 -0.18473592
0003c0 2b 62 aa 3c cf 92 45 3e b1 d4 0a 3f 56 97 b3 3e
       0.020798763 0.19294284 0.5423079 0.35076398
0003d0 7b a0 49 3f 2e 9d c6 3e da 15 94 3e 89 17 be 3d
       0.787605 0.38791794 0.2892292 0.09281833
0003e0 69 ab 80 3e 06 1e 88 3e da ef 32 3b 32 19 b2 3f
       0.25130776 0.26585406 0.0027303607 1.3913939
0003f0 22 0d 18 3e 0a 83 4f 3e 17 eb a2 3e 10 4a 01 3f
       0.1484876 0.20264831 0.31819984 0.50503635

deconv3.conv2d.bias f4 [3]
000000 11 3b 1d 3f 68 8a 40 3e d1 dc 30 3f
       0.61418253 0.18802798 0.6908694
