taffy.model (torch, 19123 bytes, 14 tensors)

conv1.conv2d.weight f4 [8, 3, 7, 7]
0	0xbd912f2d	-0.07089076
1	0xbdbd5eee	-0.09246622
2	0xbeb71e4d	-0.35765305
3	0xbe1d160c	-0.15340441
4	0xbc43dc31	-0.011954353
5	0xbd997002	-0.07492067
6	0xbd82ec09	-0.063926764
7	0x3a2f5403	0.0006688239
8	0x3eb84b4a	0.3599494
9	0x3da38bd6	0.07985656
10	0x3e570483	0.20997815
11	0x3d3bb7ed	0.045829702
12	0xbca046fd	-0.0195651
13	0xbd8db023	-0.06918361
14	0x3d8b3fd9	0.06799287
15	0x3e18c474	0.14918691
16	0x3d3d2981	0.04618216
17	0x3e7a1ffe	0.24426267
18	0xbd3e77cf	-0.046500977
19	0xbe05f527	-0.130818
20	0x3a647105	0.0008714351
21	0xbd3fa976	-0.04679247
22	0xbb0891e0	-0.0020838901
23	0xbdff3cb1	-0.12462748
24	0x3df2a4b5	0.118478216
25	0x3e1321ea	0.14368406
26	0xbd8b7c7d	-0.06810854
27	0xbdf8ca43	-0.12147953
28	0xb9b40d53	-0.00034342203
29	0x3d082027	0.033233788
30	0xbe793f97	-0.24340664
31	0x3dee4167	0.11633568
32	0x3ea979bc	0.33100688
33	0x3cb72d12	0.022360358
34	0xbe6be101	-0.23035051
35	0xbddca579	-0.10773749
36	0x3dc08e4c	0.09402141
37	0xbd9c0dd8	-0.07619828
38	0x3d5d7970	0.05407089
39	0x3df8c8b8	0.12147659
40	0x3d86c680	0.065808296
41	0xbc2e3992	-0.010633843
42	0xbc82825e	-0.015931305
43	0x3dcf8bb0	0.10134065
44	0xbc663726	-0.014051234
45	0xbdbcad75	-0.09212772
46	0xbd303662	-0.043020613
47	0xbd5bf118	-0.05369672
48	0x3d3c6ba9	0.04600111
49	0xbe943935	-0.28949896
50	0xbe1129f6	-0.14176163
51	0xbe784c70	-0.24247909
52	0xbdf50683	-0.11964133
53	0x3e8edb7f	0.27901837
54	0x3dba043b	0.09082838
55	0x3e3d3c1e	0.18479964
56	0xbe293a3f	-0.16526125
57	0x3ebfa57c	0.37430942
58	0x3eb00b78	0.3438375
59	0x3e92d5d5	0.28678766
60	0x3e8aafe3	0.27087316
61	0x3cf8a115	0.030350247
62	0x3d510572	0.051030584
63	0xbe612de7	-0.21990167
64	0x3d8b8a4f	0.0681349
65	0xbe07b83d	-0.13253875
66	0x3e9be642	0.3044911
67	0x3c530909	0.012880572
68	0xbda325f7	-0.079662256
69	0x3e94e662	0.29082018
70	0xbe084fe9	-0.13311733
71	0xbda72f58	-0.08163327
72	0xbe81036a	-0.25197917
73	0xba88853c	-0.0010415684
74	0x3dc448aa	0.09584172
75	0x3cc3e98b	0.023915073
76	0x3e8e5e88	0.27806497
77	0xbd2759a7	-0.040856984
78	0x3e1be7e2	0.15225175
79	0xbe954e8d	-0.29161492
80	0x3d9d5c8d	0.07683668
81	0x3e7bf8e7	0.24606667
82	0x3e50f11d	0.20404477
83	0x3ded2968	0.11580163
84	0xbcc0ff1d	-0.023559147
85	0x3e99853e	0.29984468
86	0x3d75d4df	0.060017463
87	0x3d11a8bf	0.03556132
88	0x3e19987e	0.14999577
89	0x3e1a6cd8	0.15080583
90	0x3e8a8660	0.27055645
91	0xbe407097	-0.1879295
92	0x3db776e6	0.08958225
93	0x3c14987e	0.00906956
94	0xbe02dbcd	-0.1277916
95	0xbe893bdc	-0.26803482
96	0xbe7627b0	-0.24038577
97	0xbd88bbd4	-0.0667645
98	0xbe395d05	-0.1810189
99	0xbd56de74	-0.05245824
100	0xbe5ecc4c	-0.2175762
101	0xbe06ccc8	-0.13164055
102	0x3d9f38d1	0.07774509
103	0xbc5d6264	-0.013512228
104	0x3e6e3c05	0.23265083
105	0xbda3b255	-0.079929985
106	0x3e992b65	0.2991592
107	0x3e32ce14	0.17461425
108	0x3e00ade8	0.1256634
109	0x3df50b4f	0.119650476
110	0x3e453d4b	0.19261663
111	0x3dab4111	0.0836202
112	0x3d882329	0.06647331
113	0x3d40b736	0.047049724
114	0xbe0a72b8	-0.13520324
115	0x3dd9305a	0.106049255
116	0x3dc41dd1	0.095759995
117	0x3ca72034	0.020401098
118	0x3e9d5802	0.30731207
119	0xbd8187bf	-0.0632472
120	0x3cc4e3d9	0.024034427
121	0xbea32659	-0.31865194
122	0xbe065b8e	-0.13120863
123	0xbd9c326b	-0.07626804
124	0xbce692b4	-0.028146125
125	0x3e658a66	0.22416076
126	0xbda3fddb	-0.080074035
127	0x3d3d604e	0.04623442
128	0xbea944fd	-0.33060446
129	0xbe4f0593	-0.2021697
130	0xbc54be21	-0.012984783
131	0xbd5365ac	-0.051610634
132	0xbd98e29c	-0.07465097
133	0xbd909b8d	-0.07060919
134	0x3e55e1e5	0.20886953
135	0xbd999ab4	-0.075002104
136	0xbdd80513	-0.10547843
137	0xbdb59c58	-0.08867711
138	0xbdbacba8	-0.091208756
139	0x3a99a602	0.0011722448
140	0xbce95eff	-0.02848768
141	0x3cf323c7	0.029680146
142	0x3d2ca188	0.042146236
143	0xbdb17294	-0.08664432
144	0xbdee8216	-0.11645906
145	0xbe23e050	-0.16003537
146	0x3e021997	0.12705074
147	0x3dff9caa	0.12481053
148	0x3d68c053	0.05682404
149	0xbda14266	-0.078739926
150	0x3dab7aef	0.08373057
151	0x3dcb2052	0.09918274
152	0x3d1a34f7	0.037648167
153	0xbcfaf75b	-0.030635526
154	0x3df830ad	0.12118659
155	0xbda3cd71	-0.07998169
156	0xbe0f2e94	-0.13982612
157	0xbe221618	-0.1582874
158	0x3da9bb01	0.08287621
159	0x3ccb8e7e	0.024848219
160	0x3d3138cd	0.04326706
161	0xbba0f480	-0.004911959
162	0x3c191e4e	0.009345604
163	0xbe158d23	-0.1460462
164	0xbdc9ea82	-0.09859182
165	0x3e0e8057	0.13916145
166	0xbdafc82d	-0.085831024
167	0xb94e7311	-0.00019688556
168	0xbd4265f9	-0.04746053
169	0x3da6df52	0.08148064
170	0x3d072826	0.032997273
171	0xbd47b2f5	-0.04875465
172	0x3e2cb54b	0.16866033
173	0xbd3bef35	-0.045882422
174	0xbe248c48	-0.16069138
175	0x3c975502	0.018473152
176	0x3dbbb6c1	0.09165717
177	0x3da70090	0.08154404
178	0x3d1d350e	0.038380675
179	0x3cd902a4	0.026490517
180	0x3ca192ee	0.019723382
181	0xbdb74aee	-0.089498386
182	0x3d5a5af2	0.05330939
183	0x3dcdb11d	0.10043547
184	0xb9f532bd	-0.00046767844
185	0x3d5acbcf	0.053417023
186	0x3d2842c6	0.041079305
187	0xbd1affea	-0.037841715
188	0xbe25fdae	-0.16210052
189	0xbc0a7687	-0.008451111
190	0x3d8c1aa0	0.06841016
191	0xbda11ec5	-0.07867197
192	0xbc9bb952	-0.019009266
193	0xbd9963ea	-0.0748976
194	0xbd7c6355	-0.061618168
195	0xbe0868e0	-0.13321257
196	0xbd880c3b	-0.06642958
197	0xbe83b177	-0.25721332
198	0xbeb475d8	-0.35246158
199	0xbe810bae	-0.25204223
200	0xbe01b631	-0.12667157
201	0xbc983563	-0.018580144
202	0x3e896188	0.26832223
203	0xbd95ad63	-0.073084615
204	0xbe8cb0b0	-0.27478552
205	0xbf09980d	-0.53747636
206	0xbeec31ea	-0.4613183
207	0xbdbde6b3	-0.09272518
208	0x3d744fe9	0.05964652
209	0x3e432f55	0.19061024
210	0xbe01e464	-0.1268478
211	0xbe3c90ea	-0.18414655
212	0xbea0327d	-0.3128852
213	0xbe5a3b20	-0.21311617
214	0x3e584f41	0.21123983
215	0x3db6b18e	0.089205846
216	0x3e19bc2f	0.15013193
217	0xbe3f0964	-0.18655926
218	0x3d01df32	0.031706996
219	0xb98b8698	-0.00026612426
220	0xbcddb3b0	-0.02706322
221	0x3eab8091	0.33496526
222	0x3db0070d	0.08595095
223	0x3e0ebd3e	0.13939378
224	0xbdf5dd65	-0.12005118
225	0x3dc1eec3	0.09469368
226	0x3d4f23b3	0.050571155
227	0x3c6083c6	0.013703292
228	0x3e0a66e3	0.1351581
229	0x3e04b1b2	0.1295841
230	0x3e6a335f	0.22871159
231	0xbce8feae	-0.028441753
232	0x3da50a3a	0.08058591
233	0xbc2c2221	-0.010506184
234	0x3d8c4e8a	0.06850918
235	0x3dc3b9a2	0.09556891
236	0x3e33d372	0.17561129
237	0x3e97fdf8	0.2968595
238	0xbe222bd2	-0.15837029
239	0x3d4a0a2a	0.0493261
240	0x3de8cff8	0.11367792
241	0x3da31fdd	0.07965062
242	0x3d971209	0.07376487
243	0x3e5b4a47	0.21415053
244	0x3ed46aa6	0.41487616
245	0xbdda1b1a	-0.106497005
246	0xbdb5aeda	-0.08871241
247	0xbdb05d58	-0.08611554
248	0xbe037a2c	-0.12839574
249	0xbce1866f	-0.027529923
250	0xbd491c93	-0.049099516
251	0x3d0ef41e	0.034900777
252	0x3c6796da	0.014135087
253	0xbd1e8704	-0.03870298
254	0xbe4b1552	-0.19832352
255	0xbe6fd7f6	-0.23422226

conv1.conv2d.bias f4 [8]
0	0xbbc7b96d	-0.0060951025
1	0xbcb3eaac	-0.021962486
2	0x3e0a8f83	0.13531308
3	0xbe14f238	-0.14545524
4	0xbce6120f	-0.028084783
5	0xbd79bd88	-0.060971767
6	0x3db70812	0.08937086
7	0xbde7b8f0	-0.11314571

in1.weight f4 [8]
0	0x3f76aa11	0.9635325
1	0x3f3fc662	0.74912083
2	0x3f59733c	0.8494146
3	0x3f80a3b3	1.0049957
4	0x3f31ba62	0.6942502
5	0x3f00fcb3	0.5038559
6	0x3f153485	0.58283263
7	0x3f5949bd	0.8487814

in1.bias f4 [8]
0	0x40134767	2.301233
1	0x3ea4e13d	0.32203093
2	0x3fc44d46	1.5336082
3	0x400f83ae	2.242412
4	0x3e9ad2da	0.30238992
5	0x3f0f668c	0.5601585
6	0x3fb31519	1.3990813
7	0x3f5fb9bb	0.8739278

res1.conv1.conv2d.weight f4 [8, 8, 3, 3]
0	0x3c1de16c	0.009636264
1	0x3db3c524	0.08777836
2	0x3cf01139	0.029305087
3	0xbc8fa687	-0.017535461
4	0xbc4e8998	-0.012606047
5	0xbdecbbf8	-0.1155929
6	0xbe2b52f7	-0.16730867
7	0xbdb6a1d8	-0.08917588
8	0x3d8a6e88	0.067593634
9	0x3ee6635b	0.44997677
10	0xbe8c20c2	-0.27368742
11	0x3edf802f	0.43652484
12	0xbd3823ac	-0.044955894
13	0xbefa36e3	-0.4887
14	0xbe387e09	-0.18016829
15	0xbbd19d46	-0.0063969223
16	0xbda6fa33	-0.081531905
17	0x3e430426	0.19044551
18	0xbe58dfb8	-0.21179092
19	0xbd3edc18	-0.046596617
20	0xbdb483a7	-0.08814173
21	0xbea9657b	-0.33085236
22	0xbd587e93	-0.052855086
23	0x3e0e35f9	0.13887776
24	0x3c99b1a6	0.018761467
25	0x3dec2859	0.11531133
26	0xbdc0058a	-0.093760565
27	0xbebc9ead	-0.3683981
28	0x3b9e77e6	0.0048360704
29	0x3e0586c6	0.13039693
30	0xbdf82a4c	-0.121174425
31	0xbc99330b	-0.018701097
32	0x3e2af413	0.1669467
33	0x3e096fae	0.13421509
34	0xbdde49b9	-0.10853905
35	0x3e145210	0.1448443
36	0x3e646ec2	0.22307876
37	0xbdc6d5c0	-0.09708738
38	0x3e06b22a	0.13153902
39	0x3e8b2ae2	0.27181154
40	0xbe32f91b	-0.17477839
41	0xbe05960c	-0.1304552
42	0xbcd0f26d	-0.025506223
43	0xbd840817	-0.064468555
44	0x3e8f327c	0.27968204
45	0xbcac0cd2	-0.021002207
46	0x3cb33b2d	0.021878803
47	0xbd8c837d	-0.06861017
48	0xbd744f21	-0.059645776
49	0x3be14908	0.006875161
50	0x3d179320	0.037005544
51	0x3dd67ccf	0.10473024
52	0x3e0fa89b	0.14029162
53	0xbdea3ba4	-0.11437157
54	0xbe2b422b	-0.1672446
55	0x3c1b2d00	0.009471178
56	0x3c886575	0.016649941
57	0x3ded8d65	0.115992345
58	0x3de9f079	0.1142282
59	0xbe642560	-0.22279882
60	0x3d0f9199	0.035050962
61	0xbe1392dc	-0.14411491
62	0x3d036ee8	0.03208819
63	0xbe548a25	-0.20755823
64	0x3e455e27	0.19274198
65	0x3de1482d	0.110000946
66	0x3ed9b9de	0.42524618
67	0x3e4b9ed9	0.19884814
68	0xbeaa5910	-0.33271074
69	0xbe76a249	-0.24085344
70	0xbe14270f	-0.14468025
71	0x3e3e0883	0.18557934
72	0xbe4a2cd8	-0.19743669
73	0x3da0be62	0.07848813
74	0xbd6379eb	-0.055536192
75	0xbe97f92e	-0.29682297
76	0x3e67b254	0.2262662
77	0x3e6c4d24	0.23076302
78	0xbdafb9fb	-0.08580395
79	0x3e932380	0.28738022
80	0x3ed27536	0.4110505
81	0xbdff6343	-0.124701045
82	0xbe66503a	-0.22491542
83	0xbd8fbb3c	-0.07018134
84	0x3c9974f2	0.018732522
85	0x3df083ed	0.11743913
86	0x3e516b46	0.20451078
87	0xbb96b897	-0.0045996415
88	0x3e3a3acc	0.18186492
89	0x3e200b96	0.1562942
90	0xbd5e1db4	-0.054227546
91	0xbe512f08	-0.20428097
92	0x3e184534	0.14870149
93	0x3e826ee2	0.25475222
94	0x3d1f0dc1	0.038831476
95	0x3df53902	0.11973764
96	0xbeaec93e	-0.3413791
97	0x3e26f7f2	0.16305521
98	0x3ea2102d	0.31652966
99	0xbd829cf9	-0.063775964
100	0xbd929601	-0.07157517
101	0xbdcfffc5	-0.10156206
102	0xbd3c68db	-0.045998435
103	0x3d6ae7a0	0.0573498
104	0x3edd8925	0.43268695
105	0x3cf2aaa4	0.029622383
106	0xbd194aa3	-0.037424695
107	0x3e336eb8	0.17522705
108	0xbdf43f81	-0.11926175
109	0xbe3c7d0b	-0.18407075
110	0xbe1bd365	-0.1521736
111	0xbd616577	-0.055028405
112	0x3d0f78c1	0.03502727
113	0x3e0d040a	0.13771072
114	0xbe1b6286	-0.15174302
115	0x3e7af138	0.2450608
116	0x3e2486bb	0.1606702
117	0x3ca41b92	0.020032678
118	0x3ceee365	0.029161165
119	0xbdfb43ad	-0.122687675
120	0xbd3bebac	-0.04587905
121	0x3e0c10d4	0.13678294
122	0xbdc6226d	-0.09674535
123	0x3dd25b4a	0.10271318
124	0x3e0c354a	0.13692203
125	0xbe187b33	-0.14890747
126	0xbdb50f2a	-0.08840783
127	0xbd76dfca	-0.060272016
128	0xbcbc4b29	-0.022985058
129	0xbdeeebe9	-0.1166609
130	0x3e584375	0.21119483
131	0x3e5cac45	0.2155009
132	0x3d1aca7d	0.037790764
133	0x3e81e7c7	0.25372145
134	0xbdffad25	-0.124841966
135	0xbe0c2677	-0.13686548
136	0x3ca22428	0.019792631
137	0x3cde39f7	0.02712725
138	0xbe172e9a	-0.14763871
139	0x3d83e146	0.06439452
140	0x3a3ed2cb	0.00072793354
141	0xbddd00d9	-0.10791177
142	0x3e9e1d2e	0.30881637
143	0x3e825ed9	0.25462988
144	0xbe95599d	-0.29169932
145	0x3cade4e6	0.021227311
146	0x3e0a1b2c	0.13486928
147	0xbc761de2	-0.015021773
148	0x3d6cbae4	0.05779542
149	0x3e0186a2	0.12649015
150	0xbd611bfb	-0.054958325
151	0x3d1d0d03	0.038342487
152	0x3dc8c3d5	0.09802977
153	0x3cfabc1d	0.030607278
154	0x3e5ba37c	0.21449083
155	0x3ea72d85	0.32651916
156	0xbe29640c	-0.16542071
157	0xbe129cdd	-0.14317651
158	0xbe20179c	-0.15634006
159	0x3e7bdcb3	0.24595909
160	0x3dc376a5	0.09544114
161	0x3e10d564	0.14143902
162	0xbde8ef13	-0.11373725
163	0xbe7f6cde	-0.24943873
164	0xbe66d417	-0.22541843
165	0xbe367ccd	-0.17821045
166	0xbe6da7e6	-0.2320858
167	0x3e4fb514	0.2028392
168	0xbe98329e	-0.29726118
169	0x3dab15d6	0.08353774
170	0x3c872dde	0.016501363
171	0xbe811897	-0.25214073
172	0x3dec32e0	0.11533141
173	0xbe14241e	-0.14466903
174	0xbea4ad41	-0.32163432
175	0x3e3665cf	0.17812274
176	0xbdd58425	-0.10425595
177	0xbe8b5657	-0.2721431
178	0x3e8328fd	0.2561721
179	0x3e1ca7ea	0.15298429
180	0xbdade921	-0.084917314
181	0xbe3943ce	-0.18092272
182	0xbd62cd3e	-0.055371515
183	0x3dcfa969	0.10139734
184	0x3caa6c18	0.020803496
185	0xbc1d6be9	-0.009608247
186	0xbe915418	-0.2838447
187	0xbe894011	-0.2680669
188	0xbdf9b42b	-0.121925674
189	0x3e4de4e2	0.20106843
190	0x3e12e81a	0.14346352
191	0x3de579ef	0.112048976
192	0x3d8c080d	0.06837473
193	0x3d737cc4	0.059445158
194	0xbd838d8b	-0.064234816
195	0xbdd925cb	-0.106029116
196	0xbd976473	-0.07392206
197	0xbec85b87	-0.3913233
198	0xbd3746aa	-0.044745125
199	0x3ce33400	0.027734756
200	0xbcf391d9	-0.029732632
201	0x3c3ce75f	0.011529773
202	0xbe2e24a3	-0.17006163
203	0xbb05e323	-0.0020429573
204	0x3d7b8c72	0.061413236
205	0x3df10afb	0.117696725
206	0xbdb1e989	-0.086871214
207	0x3e3b1d14	0.18272811
208	0x3db53ae4	0.08849123
209	0x3eaa6fef	0.33288524
210	0xbdb78052	-0.08960022
211	0x3c6d0d87	0.014468557
212	0xbdd4c783	-0.10389616
213	0x3e41ac30	0.1891334
214	0x3e50ba96	0.20383677
215	0x3d88cdf8	0.066799104
216	0x3db033c1	0.08603621
217	0xbd187fa2	-0.037231095
218	0x3c39059f	0.011292844
219	0x3d531ee9	0.05154315
220	0x3d66e914	0.056374624
221	0x3d95d07b	0.07315155
222	0xbd23c12b	-0.03997914
223	0xbadb97c2	-0.0016753601
224	0xbd4c1f6a	-0.049834646
225	0x3dba4551	0.09095252
226	0xbb97c423	-0.0046315356
227	0xbe37df7f	-0.1795635
228	0x3e7d2567	0.24721299
229	0xbdfe9b8d	-0.12432013
230	0x3d3c2c25	0.045940537
231	0xbcfe6d42	-0.031057958
232	0xbf2d1137	-0.6760439
233	0xbdd08fd3	-0.10183682
234	0xbd5c42d4	-0.05377467
235	0x3cd1ca9b	0.025609305
236	0x3deb815f	0.11499285
237	0x3e73cead	0.2380931
238	0x3dbcd602	0.09220506
239	0xbe2c8543	-0.1684771
240	0x3e0b194e	0.13583872
241	0xbe5b1679	-0.21395291
242	0xbef2dcdb	-0.47434124
243	0x3e1f8e46	0.15581617
244	0xbd549f54	-0.05190976
245	0xbd83a912	-0.06428732
246	0xbc1e3f9e	-0.009658722
247	0xbe60a9c5	-0.21939762
248	0x3db7066c	0.08936772
249	0x3dd5c0b4	0.10437146
250	0xbe89eaac	-0.26936853
251	0x3c88331d	0.016625935
252	0x3ce3ee14	0.027823485
253	0xbc5ae7e5	-0.013360952
254	0xbcec5092	-0.028847013
255	0x3d2789a8	0.040902764

res1.conv1.conv2d.bias f4 [8]
0	0xbf020b76	-0.5079874
1	0xbe7ac4fb	-0.24489205
2	0x3c773b97	0.015089891
3	0xbebd631f	-0.36989686
4	0xbe51f992	-0.2050536
5	0x3c3a7e1f	0.011382609
6	0x3d3f16d8	0.046652645
7	0x3e0eb31a	0.1393551

res1.in1.weight f4 [8]
0	0x3f1be334	0.6089356
1	0x3eab22fe	0.33425134
2	0x3f685890	0.90760136
3	0x3e9246fb	0.2856978
4	0x3f480471	0.7813178
5	0x3f46d418	0.7766738
6	0x3f4d37ac	0.80163074
7	0x3f23491c	0.6378343

res1.in1.bias f4 [8]
0	0xbed013b8	-0.40640044
1	0x3e9928f7	0.29914066
2	0xbfc28ba1	-1.5198861
3	0x3f12fe71	0.57419497
4	0xbf94063b	-1.1564401
5	0xbf97c000	-1.1855469
6	0xbe75b9b8	-0.23996627
7	0xbf8e1e10	-1.1102924

res1.conv2.conv2d.weight f4 [8, 8, 3, 3]
0	0xbdcb18b5	-0.09916822
1	0xbd054bcb	-0.032542985
2	0xbe125f51	-0.14294173
3	0x3d8ed44c	0.06974086
4	0xbdfbdcdd	-0.12297986
5	0xbc817c2d	-0.015806282
6	0x3d8c2b6a	0.06844218
7	0x3d290c05	0.04127123
8	0x3e99f802	0.30072027
9	0xbe8ab1a8	-0.27088666
10	0xbd6b3c3c	-0.05743049
11	0xbce10108	-0.027466312
12	0x3c5adb0a	0.013357887
13	0x3c1fc4a0	0.009751469
14	0xbd0b64f9	-0.034031842
15	0xbe140d99	-0.14458312
16	0xbdd9b24b	-0.1062971
17	0x3c72cc99	0.014819288
18	0x3d82353f	0.06357812
19	0x3dee45d5	0.11634413
20	0xbe4a4a5d	-0.1975493
21	0x3dc07a98	0.09398383
22	0xbdc7454e	-0.09730016
23	0xbf0e8f31	-0.5568724
24	0xbcf555bd	-0.02994811
25	0xbe9567c6	-0.29180735
26	0xbebbb78b	-0.3666347
27	0xbe3ba661	-0.18325187
28	0xbe090417	-0.13380466
29	0xbc7a4bcc	-0.01527686
30	0xbe068395	-0.13136132
31	0xbe70f8fe	-0.23532483
32	0xbdbeeb98	-0.0932228
33	0xbe318800	-0.17337036
34	0xbcd5cdab	-0.026099047
35	0xbc6628c9	-0.01404781
36	0xbe000157	-0.12500511
37	0x3ded630e	0.11591159
38	0x3e26c66c	0.1628663
39	0xbe511ce2	-0.20421174
40	0xbdc8a841	-0.09797717
41	0xbe2444a3	-0.16041808
42	0x3c9434ec	0.018091641
43	0xbe8606c9	-0.26177052
44	0xbe33be24	-0.17553002
45	0xbe40db2c	-0.18833607
46	0x3dd436bf	0.103620045
47	0x3eba4cc7	0.363867
48	0xbecde557	-0.40214035
49	0xbebe3659	-0.3715084
50	0xbde061e2	-0.1095617
51	0xbdc918ac	-0.09819159
52	0xbdf6ad30	-0.12044752
53	0x3da211a0	0.07913518
54	0xbd0d7182	-0.034532078
55	0x3cdbf88a	0.026851911
56	0x3e6521ef	0.22376226
57	0xbe47b0bb	-0.19501011
58	0x3cbd737b	0.023126354
59	0x3e2ab700	0.16671371
60	0x3d757771	0.05992836
61	0x3d9f6e68	0.0778473
62	0xbe80665e	-0.250781
63	0xbcb4f15c	-0.022087745
64	0xbcc189e2	-0.023625318
65	0xbeae3504	-0.34024823
66	0x3c87b2dc	0.016564779
67	0xbe218bec	-0.15776032
68	0xbe6f4d51	-0.23369338
69	0xbd9e6ed5	-0.07735983
70	0xbde03344	-0.10947278
71	0xbed2f196	-0.4119994
72	0xbe197210	-0.14984918
73	0xbe04993d	-0.12949081
74	0xbd0568a2	-0.03257049
75	0x3e1cd1b2	0.15314367
76	0xbe570da5	-0.21001299
77	0x3c1a7392	0.009426968
78	0xbbcdf41f	-0.006285205
79	0xbda3d835	-0.080002226
80	0xbd35b460	-0.044361472
81	0xbe0052f8	-0.1253165
82	0x3e342364	0.17591625
83	0xbe142e7c	-0.14470857
84	0x3d59e8e9	0.053200636
85	0xbc8bf241	-0.01708329
86	0xbe46a99c	-0.19400638
87	0x3d41951d	0.047261346
88	0x3a2b3a6c	0.0006531838
89	0xbe479f89	-0.19494452
90	0xbe4bd904	-0.19907004
91	0xbd36677c	-0.044532284
92	0x3eb67c82	0.35641867
93	0xbe0586c4	-0.1303969
94	0x3e31dc99	0.17369308
95	0x3e301208	0.17194378
96	0x3dfa8d0e	0.12233935
97	0x3e494699	0.19655837
98	0xbe8637a2	-0.2621432
99	0x3e86c0ea	0.26319057
100	0x3e8b2f53	0.27184543
101	0xbe511cd6	-0.20421156
102	0xbdab560b	-0.08366021
103	0x3e21eedf	0.15813778
104	0xbee67218	-0.45008922
105	0x3d522d55	0.051312763
106	0xbd5f3578	-0.05449435
107	0xbe212ab2	-0.15738943
108	0xbd873c8f	-0.066033475
109	0x3bb1fa76	0.0054314686
110	0x3e1bffd7	0.15234314
111	0xbe0850c0	-0.13312054
112	0xbe576743	-0.21035485
113	0xbd552e29	-0.052045975
114	0x3d9391c2	0.072055355
115	0x3dd49208	0.10379416
116	0xbe0f4ac9	-0.13993372
117	0x3d7e304b	0.062057775
118	0x3e8c6f2d	0.2742857
119	0xbe44b6eb	-0.19210403
120	0x3dcdea27	0.10054427
121	0x3dd9cfa8	0.106353104
122	0xbde2f48c	-0.110818
123	0x3e163146	0.14667234
124	0x3dcef142	0.1010461
125	0xbe8c84fd	-0.27445212
126	0x3e0037b4	0.12521249
127	0xbe47cd80	-0.19511986
128	0x3e0f4658	0.13991678
129	0x3de33f4e	0.11096059
130	0x3db526f7	0.088453226
131	0x3c8cf0d5	0.017204681
132	0x3b0e4540	0.0021708757
133	0xbe7f2a46	-0.2491847
134	0x3d12bda1	0.035825375
135	0xbd8baedd	-0.06820462
136	0x3f02853e	0.5098456
137	0xbd46dc0f	-0.048549708
138	0xbe391955	-0.1807607
139	0x3e65d19d	0.22443242
140	0xbd01ae2d	-0.031660248
141	0x3da6fe0b	0.081539236
142	0x3cf137c7	0.029445542
143	0xbdd4913e	-0.10379265
144	0x3dae93f8	0.085243165
145	0x3b08016a	0.0020752796
146	0x3d459c5d	0.048244823
147	0x3d6497a5	0.055808682
148	0x3e0e2be1	0.13883926
149	0xbe86a9ea	-0.2630151
150	0xbd0ddfc9	-0.034637246
151	0xbe5ff7bc	-0.21871847
152	0x3daf748a	0.0856715
153	0x3e228f7f	0.15875052
154	0x3db4cfb5	0.088286795
155	0xbc41fa30	-0.0118394345
156	0x3d81c73a	0.063368276
157	0xbe173063	-0.14764552
158	0xbddad0d8	-0.10684365
159	0xbc762bd1	-0.015025095
160	0xbe030c41	-0.12797643
161	0x3e068bf6	0.13139328
162	0x3dae113f	0.08499383
163	0x3eed27ad	0.46319333
164	0xbf09eb67	-0.5387482
165	0x3efdf663	0.4960204
166	0xbea087ae	-0.31353515
167	0xbe2f3899	-0.17111434
168	0xbea26bab	-0.3172277
169	0xbed376f5	-0.41301695
170	0x3eaadbe0	0.33370876
171	0x3d23f3ab	0.0400273
172	0x3d881610	0.06644833
173	0xbe4c23e4	-0.19935566
174	0xbc6a7b78	-0.014311664
175	0xbd7d205e	-0.061798446
176	0x3dc00dce	0.09377633
177	0x3c8ada81	0.016949894
178	0x3e066025	0.13122614
179	0x3dad4607	0.08460622
180	0x3dc338f7	0.095323496
181	0xbdcbbfea	-0.09948714
182	0x3d44cb5b	0.048045497
183	0xbcf8cba0	-0.030370533
184	0xbdee8b43	-0.11647656
185	0x3c43f202	0.011959555
186	0xbd18ab7e	-0.037272923
187	0x3db882b9	0.09009308
188	0x3cedc5c2	0.029024962
189	0x3e4d3156	0.20038351
190	0xbd2c4271	-0.04205555
191	0xbdb6a0c4	-0.08917382
192	0xbcf07a23	-0.029355114
193	0xbd44cb86	-0.048045658
194	0xbdbfdb69	-0.09368021
195	0xbd9492ff	-0.072546
196	0x3d819b78	0.063284814
197	0x3df9bfeb	0.121948086
198	0xbda9f5e6	-0.082988545
199	0xbca6e8ac	-0.020374618
200	0x3dd456cd	0.103681184
201	0xbe1a59c6	-0.15073308
202	0x3e47a11e	0.19495055
203	0xbd9fd680	-0.078045845
204	0x3e271ba3	0.16319136
205	0xbda67107	-0.08127027
206	0xbd93bccc	-0.072137445
207	0x3dcdeefb	0.100553475
208	0x3de1d525	0.11026982
209	0x3d2107c7	0.039314058
210	0xbd979fce	-0.07403527
211	0x3e10cc00	0.1414032
212	0xbc2693d0	-0.010167077
213	0xbe2a79b6	-0.16647992
214	0x3d127b0f	0.03576189
215	0x3e2a0c9f	0.16606377
216	0xbde049d2	-0.1095158
217	0xb8b24279	-8.500083e-05
218	0x3e5afb17	0.21384846
219	0x3e05645d	0.13026567
220	0xbe2c1a1e	-0.16806838
221	0xbe33be74	-0.17553121
222	0x3ce780fc	0.028259747
223	0x3e17c326	0.14820537
224	0xbd3fb0a4	-0.046799317
225	0xbe516c00	-0.20451355
226	0xbd9617f8	-0.073287904
227	0x3cf2bc3e	0.029630776
228	0xbda7f02c	-0.08200106
229	0x3cff3176	0.031151515
230	0x3d5e2e75	0.054243524
231	0xbd830f5b	-0.06399413
232	0x3e0cb891	0.13742281
233	0x3cf702b5	0.030152658
234	0xbce19584	-0.027537115
235	0x3dd43211	0.10361112
236	0xbdb235ab	-0.087016426
237	0xbdeadd73	-0.11468019
238	0x3d4fea92	0.050760813
239	0x3e24ba53	0.16086702
240	0x3dea0cf9	0.114282556
241	0x3ca8f5db	0.020625046
242	0x3d53229c	0.051546678
243	0xbd4d2c73	-0.05009122
244	0x3d0cd834	0.034385875
245	0xbd9ce733	-0.07661285
246	0xbd79b716	-0.06096562
247	0x3d4fbcf9	0.050717328
248	0x3e97403d	0.29541197
249	0x3dffc555	0.1248881
250	0xbde5f999	-0.112292476
251	0xbe076359	-0.13221492
252	0x3dab7f9c	0.08373949
253	0x3ccb48c6	0.024814975
254	0xbe30032b	-0.17188708
255	0xbdf72ad4	-0.12068716

res1.conv2.conv2d.bias f4 [8]
0	0x3c1e104b	0.009647439
1	0x3c846dd7	0.016165657
2	0x3e696f61	0.22796394
3	0xbe63e0cf	-0.22253726
4	0x3d37e4a1	0.044895772
5	0xbe0efaa3	-0.13962798
6	0x3c8cebcb	0.017202279
7	0x3e3aee52	0.18254974

res1.in2.weight f4 [8]
0	0x3fb5e012	1.4209006
1	0x3ffd18f7	1.9773244
2	0x3fea6cbf	1.8314437
3	0x3fea73e0	1.8316612
4	0x400dc65d	2.2152321
5	0x3fc92c81	1.5716707
6	0x3fbc6aa5	1.4720045
7	0x3ff76274	1.932692

res1.in2.bias f4 [8]
0	0x3fd290b1	1.6450406
1	0x3fa68414	1.3009057
2	0x3fc1cbff	1.514038
3	0x3fad2847	1.3527917
4	0x3fa76b61	1.3079644
5	0x3f8d9914	1.1062341
6	0x3fc3f229	1.5308276
7	0x3fb009dd	1.375301

deconv3.conv2d.weight f4 [3, 8, 7, 7]
0	0x3e3c5b1c	0.1839413
1	0x3daa74bf	0.08323049
2	0x3e2867e5	0.16445883
3	0x3d9dfbb6	0.07714026
4	0x3e23a248	0.15979874
5	0x3e6f96da	0.23397389
6	0xbddcd570	-0.107828975
7	0x3efbd6e6	0.49187392
8	0x3f2a5864	0.66541123
9	0x3f0c3cb3	0.5478012
10	0x3f0e2b84	0.5553515
11	0x3f13c1c3	0.5771753
12	0x3ee2a124	0.44263566
13	0x3e7f89b8	0.2495488
14	0x3e9f357f	0.31095502
15	0x3f2caa2c	0.6744716
16	0x3f361573	0.7112648
17	0x3f272b2f	0.6530027
18	0x3edd1d7e	0.43186563
19	0x3e7c654b	0.24648015
20	0x3e946624	0.28984177
21	0x3e174adb	0.14774649
22	0x3e5e5b8a	0.21714607
23	0x3f0a953c	0.54133964
24	0x3efd75b9	0.49503878
25	0x3e83c3c7	0.25735304
26	0x3ed7f233	0.4217697
27	0x3e8ac60b	0.2710422
28	0x3f0667bd	0.5250204
29	0x3eb92d31	0.3616729
30	0x3ec3075c	0.38091552
31	0x3f08d179	0.5344463
32	0x3ee62a53	0.44954166
33	0x3f31dd71	0.6947852
34	0x3ed047d7	0.4067981
35	0x3f2067d4	0.6265843
36	0x3f3ee835	0.7457307
37	0x3f13dd5e	0.57759655
38	0x3f2089ea	0.6271044
39	0x3f1d3631	0.61410815
40	0x3f20668c	0.62656474
41	0x3f4422aa	0.76615393
42	0x3e3e7192	0.18598011
43	0x3ea17902	0.31537634
44	0x3eb7a52a	0.35868198
45	0x3e8f420d	0.2798008
46	0xbe3ca2cf	-0.18421482
47	0x3c8b5f85	0.01701332
48	0x3f2494c8	0.6428952
49	0x3e0e2596	0.13881525
50	0x3e93217d	0.28736487
51	0x3ef26946	0.47345942
52	0x3ebd7199	0.3700073
53	0x3e4f3050	0.20233274
54	0x3e52c64b	0.20583455
55	0x3e4ffb6e	0.20310757
56	0x3e11a710	0.14223886
57	0x3decc906	0.1156178
58	0x3ec45901	0.38349155
59	0x3e81fcc9	0.25388172
60	0x3e74de2e	0.2391288
61	0x3e79eae3	0.24406008
62	0x3dc7d868	0.09758073
63	0xbd4cf047	-0.050033834
64	0x3da01ca3	0.07817962
65	0x3eefef61	0.4686232
66	0xbe7f1a94	-0.24912483
67	0x3e3edfa4	0.1864
68	0x3e96173b	0.29314598
69	0xbec5d227	-0.38636896
70	0xbdb8d500	-0.090250015
71	0x3e3d0f85	0.18462951
72	0x3f082cf3	0.5319359
73	0xbe2f29d9	-0.17105807
74	0xbd17f81c	-0.03710185
75	0x3e991465	0.29898372
76	0xbd80255a	-0.06257124
77	0xbe12067a	-0.14260283
78	0x3e632adf	0.22184323
79	0x3ed20574	0.41019785
80	0xbe93f9da	-0.2890156
81	0xbdc7473c	-0.09730384
82	0x3efb5145	0.4908544
83	0x3eaa31ec	0.33241212
84	0xbebe7656	-0.37199658
85	0x3eb5a973	0.35480842
86	0x3f01b721	0.5067006
87	0xbeb63e3e	-0.35594362
88	0xbdd7ffab	-0.10546812
89	0x3eb5c662	0.35502917
90	0x3e618419	0.22023048
91	0xbe9d5ffc	-0.30737293
92	0xbe318538	-0.17335975
93	0x3f06fad8	0.5272651
94	0x3efdfc1f	0.49606416
95	0x3e45a1ae	0.19299957
96	0x3b9c8dc6	0.004777643
97	0x3d8b45d3	0.06800427
98	0x3e1feb39	0.15617074
99	0x3bb3e2ff	0.0054897065
100	0x3d67cfaf	0.056594547
101	0x3d93b853	0.072128914
102	0x3de0ded7	0.10980003
103	0x3baa0504	0.005188586
104	0xbf1520a3	-0.58252925
105	0xbd772e7f	-0.060347077
106	0x3e42069f	0.18947838
107	0x3dc27b4b	0.094961725
108	0x3de2e2b5	0.11078397
109	0xbc6f6b9c	-0.014613058
110	0xbe610bef	-0.21977209
111	0xbe8d7293	-0.27626476
112	0x3e5f60da	0.2181429
113	0x3e728701	0.23684312
114	0x3e29478a	0.16531196
115	0xbba9b3c8	-0.0051789023
116	0x3e910d2e	0.28330368
117	0x3db30401	0.08740998
118	0x3e9b2948	0.30304933
119	0x3e848d28	0.25888944
120	0xbd88ec49	-0.06685693
121	0x3d5c5993	0.053796362
122	0x3e36542f	0.17805551
123	0x3f447340	0.7673836
124	0x3f039bd1	0.5140963
125	0x3e829925	0.25507465
126	0x3d9edeb2	0.077573195
127	0xbe8a7c95	-0.27048174
128	0x3dced3ec	0.10099015
129	0x3f348fb1	0.70531756
130	0x3f2e506d	0.6809147
131	0xbe437960	-0.1908927
132	0x3e17de28	0.1483084
133	0x3df2c53b	0.11854025
134	0xbd4f6e7e	-0.050642483
135	0x3ec6a109	0.38794735
136	0x3e1e5082	0.15460399
137	0xbec7afd0	-0.39001322
138	0x3e1937ae	0.14962646
139	0x3f288726	0.6583122
140	0xbdecaa2b	-0.115558945
141	0xbcf73915	-0.030178586
142	0x3ed27a9c	0.4110917
143	0xbda89f06	-0.08233456
144	0x3e7fcc90	0.24980378
145	0x3ef09c25	0.4699413
146	0x3e528185	0.2055722
147	0x3e9104d9	0.2832401
148	0xbc17a876	-0.009256473
149	0x3dbe84ae	0.093026504
150	0x3e658558	0.22414148
151	0x3d7190eb	0.058976095
152	0x3dcce429	0.100044556
153	0x3eef1c8e	0.46701473
154	0x3e269435	0.16267474
155	0x3ec523e0	0.38503933
156	0x3eb49059	0.3526638
157	0x3e8a17be	0.2697124
158	0xbbcbaeec	-0.0062159207
159	0x3e83d5f7	0.2574918
160	0x3e0071c1	0.12543394
161	0xbe1b8862	-0.15188745
162	0xbe1234a1	-0.14277889
163	0x3e2c05bd	0.16799064
164	0x3f6f9044	0.93579507
165	0x3e9a225e	0.30104345
166	0x3e3cd4a5	0.18440492
167	0x3e9d854e	0.30765766
168	0x3de76f13	0.113004826
169	0xbe62d16e	-0.22150204
170	0xbf5c2a83	-0.8600237
171	0x3f390764	0.722769
172	0x3f8f73cb	1.1207212
173	0x3e89d83d	0.2692279
174	0x3e221c8b	0.15831201
175	0x3e548746	0.20754728
176	0x3ef53d62	0.47898394
177	0x3d656801	0.05600739
178	0xbf6383c0	-0.8887291
179	0x3ee898e5	0.4542915
180	0x3f736772	0.9507972
181	0x3e2d718b	0.16937844
182	0xbe7f5397	-0.2493423
183	0x3e8b71a3	0.27235135
184	0x3f3389ef	0.70132345
185	0x3ef67836	0.4813859
186	0xbef47c2e	-0.47750992
187	0x3ef30672	0.47465855
188	0x3f32f3a0	0.6990299
189	0x3d9d30bd	0.07675312
190	0xbedd5e80	-0.4323616
191	0x3d02d833	0.031944465
192	0x3f1461a7	0.57961506
193	0x3f0a9e89	0.54148155
194	0xbe868f86	-0.26281375
195	0x3d8bd442	0.06827594
196	0x3e2de5cc	0.16982192
197	0x3e190b37	0.14945684
198	0xbe8f036c	-0.27932298
199	0xbe093464	-0.13398892
200	0x3d154933	0.03644676
201	0xbd11ba56	-0.035578094
202	0x3ea7c583	0.32767877
203	0xbdbecea1	-0.09316755
204	0x3ec32e76	0.38121384
205	0x3efff752	0.49993378
206	0x3e05495a	0.13016263
207	0x3e9c4a39	0.30525377
208	0x3dfcae19	0.12337894
209	0x3dc2c50e	0.095102414
210	0x3e34fe3e	0.1767511
211	0xbe22cfa5	-0.15899523
212	0x3ed20b13	0.41024074
213	0x3e1fe802	0.15615848
214	0x3e25fee3	0.16210513
215	0x3de1e47a	0.110299066
216	0x3d8e79a5	0.069567956
217	0xbb2a8562	-0.0026019444
218	0xbe2112ab	-0.15729778
219	0x3e21d76d	0.15804835
220	0xbecd3161	-0.40076736
221	0xbea5b158	-0.32361865
222	0x3e5aafd5	0.21356137
223	0xbd3650a7	-0.04451051
224	0x3da7fda3	0.08202674
225	0x3de4d0ff	0.11172675
226	0x3f083393	0.53203696
227	0x3e54f09c	0.2079491
228	0xbeee4999	-0.46540526
229	0x3e489e87	0.19591723
230	0x3e4d7072	0.20062426
231	0xbc892cdb	-0.016745022
232	0xbe7cf4a9	-0.24702705
233	0x3e8276d0	0.25481272
234	0x3f2cc016	0.674806
235	0x3ead54a6	0.33853644
236	0xbe9b22a1	-0.30299857
237	0xbc9d578a	-0.019206781
238	0xbe99bb1a	-0.3002556
239	0xbe2d8439	-0.1694497
240	0x3e137773	0.14401035
241	0xbe1b76e7	-0.15182076
242	0x3e1a3991	0.15061022
243	0x3ec9f9c0	0.39448357
244	0x3d3d4bbd	0.046214808
245	0x3f21cea8	0.6320596
246	0x3eb9edf6	0.36314362
247	0x3df47a0a	0.119373396
248	0x3e7d2028	0.24719298
249	0x3e12a807	0.1432191
250	0x3db27f6e	0.087157115
251	0x3eeb161e	0.45915312
252	0x3e91b123	0.28455457
253	0x3d0ad4cd	0.03389435
254	0x3e6ccb70	0.2312448
255	0x3ecd1acf	0.40059516

deconv3.conv2d.bias f4 [3]
0	0x3f255421	0.64581496
1	0x3e7e4b29	0.24833359
2	0x3edd6b2d	0.4324583
